…
Downloading data from https://storage.googleapis.com/tensorflow/tf-keras-datasets/mnist.npz
11490434/11490434 [==============================] - 2s 0us/step
Dataset Splitting Complete.
Number of training images: Printed Digits - 5055, MNIST - 54077
Number of testing images: Printed Digits - 1264, MNIST - 9020
Data Combination Complete.
Training Log

-------------


Model Summary:
Model: "sequential"
_________________________________________________________________
 Layer (type)                Output Shape              Param #   
=================================================================
 conv2d (Conv2D)             (None, 26, 26, 32)        320       
                                                                 
 conv2d_1 (Conv2D)           (None, 24, 24, 64)        18496     
                                                                 
 max_pooling2d (MaxPooling2  (None, 12, 12, 64)        0         
 D)                                                              
                                                                 
 batch_normalization (Batch  (None, 12, 12, 64)        256       
 Normalization)                                                  
                                                                 
 conv2d_2 (Conv2D)           (None, 10, 10, 128)       73856     
                                                                 
 conv2d_3 (Conv2D)           (None, 8, 8, 128)         147584    
                                                                 
 max_pooling2d_1 (MaxPoolin  (None, 4, 4, 128)         0         
 g2D)                                                            
                                                                 
 batch_normalization_1 (Bat  (None, 4, 4, 128)         512       
 chNormalization)                                                
                                                                 
 flatten (Flatten)           (None, 2048)              0         
                                                                 
 dense (Dense)               (None, 512)               1049088   
                                                                 
 dense_1 (Dense)             (None, 19)                9747      
                                                                 
=================================================================
Total params: 1299859 (4.96 MB)
Trainable params: 1299475 (4.96 MB)
Non-trainable params: 384 (1.50 KB)
_________________________________________________________________
Epoch 1/100
1182/1182 [==============================] - 32s 26ms/step - loss: 0.3438 - accuracy: 0.8827 - val_loss: 0.3140 - val_accuracy: 0.8816 - lr: 0.0010
…
